# YOLOv5 🚀 by Ultralytics, GPL-3.0 license

# Parameters
nc: 6  # number of classes
depth_multiple: 1.0  # model depth multiple (controlla n° ripetizone blocchi) (number*depth)
width_multiple: 1.0  # layer channel multiple
anchors:
  - [10,13, 16,30, 33,23]  # P3/8
  - [30,61, 62,45, 59,119]  # P4/16
  - [116,90, 156,198, 373,326]  # P5/32
# volendo posso passare 'activation'

# YOLOv5 v6.0 backbone           METTI IL CONVNEXT0 DENTRO AL CONVNEXT
backbone:
  # [from, number, module, args[channel_out,kernel,stride,padding]
  [ [ -1, 1, SpatialAttDownSample, [ 96, 4, 4, 0 ] ],                # 0(stem)
    [ -1, 1, LayerNorm,'' ],                          #1
    [ -1, 3, ConvNextBlock, [ 96 ] ],                #2
    [ -1, 1, LayerNorm,'' ],                          #3
    [ -1, 1, SpatialAttDownSample, [ 192, 2, 2, 0 ] ],          #4
    [ -1, 3, ConvNextBlock, [ 192 ] ],                #5
    [ -1, 1, LayerNorm,'' ],                          #6 C1
    [ -1, 1, SpatialAttDownSample, [ 384, 2, 2, 0 ] ],          #7
    [ -1, 9, ConvNextBlock, [ 384 ] ],                #8
    [ -1, 1, LayerNorm,'' ],                          #9 C2
    [ -1, 1, SpatialAttDownSample, [ 768, 2, 2, 0 ] ],         #10
    [ -1, 3, ConvNextBlock, [ 768 ] ],               #11
    [ -1, 1, SPPFConvNext, [ 768, 5 ] ],             #12
    [ -1, 1, LayerNorm,'' ],                          #13
  ]

  # YOLOv5 v6.0 head
head:
  [ [ -1, 1, SpatialAttDownSample, [ 384, 1, 1, 0 ] ],        #14
    [ -1, 1, LayerNorm,'' ],                        #15 H3
    [ -1, 1, nn.Upsample, [ None, 2, 'nearest' ] ], #16
    [ [ -1, 9 ], 1, Concat, [ 1 ] ],                #17 cat C2
    [ -1, 1, SpatialAttDownSample, [ 384, 1, 1, 0 ] ],        #18
    [ -1, 3, ConvNextBlock, [ 384 ] ],              #19

    [ -1, 1, SpatialAttDownSample, [ 192, 1, 1, 0 ] ],        #20
    [ -1, 1, LayerNorm,'' ],                        #21 H4
    [ -1, 1, nn.Upsample, [ None, 2, 'nearest' ] ], #22
    [ [ -1, 6 ], 1, Concat, [ 1 ] ],                #23 cat C1
    [ -1, 1, SpatialAttDownSample, [ 192, 1, 1, 0 ] ],        #24
    [ -1, 3, ConvNextBlock, [ 192 ] ],              #25
    [ -1, 1, LayerNorm,'' ],                        #26  (P3/8-small)

    [ -1, 1, SpatialAttDownSample, [ 192, 2, 2, 0 ] ],        #27
    [ [ -1, 21 ], 1, Concat, [ 1 ] ],               #28 cat H4
    [ -1, 3, ConvNextBlock, [ 384 ] ],              #29
    [ -1, 1, LayerNorm,'' ],                        #30  (P4/16-medium)

    [ -1, 1, SpatialAttDownSample, [ 384, 2, 2, 0 ] ],        #31
    [ [ -1, 15 ], 1, Concat, [ 1 ] ],               #32 cat H3
    [ -1, 3, ConvNextBlock, [ 768 ] ],             #33
    [ -1, 1, LayerNorm,'' ],                        #34  (P5/32-large)

    [ [ 26, 30, 34 ], 1, Detect, [ nc, anchors ] ], #35 Detect(P3, P4, P5)
  ]
